checkpoint.pth (torch_old, 28417 bytes, 6 tensors)

fc1.weight f4 [64, 37]
00000000: fba6 043e ebeb 1dbd 1049 37be 71aa b2bd
00000010: 3fd1 cbbe dce1 853d 7171 7bbd d3af 9d3d
00000020: 1d0d 063e b8dd f13d b719 dcbc 69e7 333b
00000030: b553 06be dc2c 3cbe c801 443c 7eea cb3d
00000040: 5e7b a9bc e1c9 87bd 2479 33bc 6b6d aebd
00000050: c061 103c 61c5 ed3d 1f8e a83d 402d ec3d
00000060: 9eff 1fbd d6e1 803d 2061 d739 69ca aabd
00000070: 4a50 90bc fa08 0cbe 92ca a0bc a8af afba
00000080: adc1 31bd 79f5 9d3d ab57 9abd 0eca 96be
00000090: d8ac 8ebc f1b1 873e 46a1 3b3c 1390 9b3d
000000a0: 2747 b3bd 671c afbe 1f57 613d 59f5 20bd
000000b0: dd5f 01be 1c24 18be 99e2 28be 4328 013e
000000c0: 3744 76bd fab3 af3b c70b b63d 0a50 d93c
000000d0: 9ac1 103e 12c2 f23c 337a 1abd 0bbc fcbc
000000e0: 98e0 3fbd a7ff fcbd c306 8cbd 5e59 cfbd
000000f0: 1361 9c3d 1b80 a73d f21e 9cbd 6873 e8b8
00000100: 9dc3 173e 497e 23bd 409c 023e 28d1 553d
00000110: f9e1 153e dd9f b93d 7d44 99bc b278 ccbd
00000120: 7256 fabc 9f80 003c 03cd 2c3e 34b6 b83d
00000130: b9bb 463d cee0 473d a144 d2bb 87d7 fdbe
00000140: 073e 553d 7d13 7f3e 4e2f 213e eda3 1abf
00000150: ac8f 49bd 9f89 8cbd d5aa 1dbd 500a 343e
00000160: 2f74 433e 5bd5 18be 3233 033e a0b1 fc3d
00000170: d414 b9bb 2d2c a63d f3f2 11bd eaad d2bc
00000180: 0d81 71bd 183e 833d 657f 5b3e 29ee 60be
00000190: 2ca3 523e 8a66 3a3e 27e1 b7bd a077 52be
000001a0: 7cd0 7ebe d47d 75bd df1e 2c3d a577 39be
000001b0: 3439 863d d9dc 4a3c fc77 8cbc 8ad5 353d
000001c0: d7ce f9bd 14c6 743e 55ed 72bd 6182 d8be
000001d0: 632a adbd 669e 093d 4c6c c93d d159 18be
000001e0: 6dc1 3abe 21a9 c7bd fd30 183c f492 fd3c
000001f0: 7118 14be 0e3e a2bd f7cf 8ebe db61 a2be
00000200: ba68 e83d 197f 44be 5591 39bf 7149 fdbd
00000210: fd82 92bb 8297 0e3d cff3 aebb 6453 c43b
00000220: 2f8f 12be 808a 96be dc95 673e 2e23 52be
00000230: 5ba8 fcbe a7af 1fbd 380c 313d a38a db3d
00000240: b245 82bd 57c2 59be 5844 523e acdb f1bb
00000250: 6051 99bd aa49 4dbd 6ea1 46be d9cb eebd
00000260: 6f26 ddbd 115e 87be 9b47 3a3e 7e96 983c
00000270: 235e 1d3e 0ebd a2be 8720 fb3b f565 88bd
00000280: 81f8 393d a08d 4fbe e8dd cbbd f0b3 41be
00000290: 42ea 933d cf3f 2abd 400e 83bd f913 8cbd
000002a0: 93a4 1dbe 5c77 af3d 0474 c83d d43c 4dbe
000002b0: 247a 813e 145b ea3d cf3f 71be c9e6 cf3d
000002c0: 5480 e2bd 1127 c0be 8b8e 163e 1405 43bc
000002d0: d6b2 013b 213d c7be 5e85 00bf 5d3c 163d
000002e0: 365a c53b f9fe 703c 693f ec3c 8ca3 743d
000002f0: d599 8abd 0220 af3d 4376 ac3e b55b dabe
00000300: 0e28 69be 4bfb a6be f04e c2bf 6d8c 8abd
00000310: 4faa 7dbc e397 abbb 8f5a 2abd 5f42 873c
00000320: 81b8 5d3d 0799 d23d 5d33 a0bd e023 1abd
00000330: bc07 2cbd 5aba 1a3e d5a9 353d abb1 eb3d
00000340: 9781 4c3b a6d9 0a3e 5b55 643d 514c f03a
00000350: 5c65 b5bc a980 9a3d 13c8 cbbc 6c37 313d
00000360: 251d 82bd a2c3 0f3c beb7 d33d 4803 26bd
00000370: ac8b b6ba d402 5e3d 9857 1e3d f431 a9ba
00000380: 8bf8 b6bb 09b4 85bd 9e2b d5bc b864 0bbe
00000390: 77d5 0cbe e59d 843d 8f20 0b3d ff77 433e
000003a0: 67b7 183d 0ad0 583c faa4 863d d927 823c
000003b0: 1232 893c d1bd c5bd c583 d0bd 4e1c 31bb
000003c0: afd9 f83d f833 9d3e dd92 913d bbf6 49be
000003d0: 0089 8fbc c259 dcbd 4227 8d3e d3c7 24be
000003e0: acef b13c c87a 5ebd 432e 8bbd d871 9a3d
000003f0: 3ec6 7f3e f9e6 6cbe c5d4 3fbe 86bc 7c3d
0.12954323 -0.038555067 -0.17898965 -0.08723915 -0.3980808 0.0653722 -0.061387483 0.076995514
0.1309094 0.118098676 -0.02686773 0.0027451164 -0.13117869 -0.18376487 0.011963315 0.09956835
-0.020688709 -0.06630302 -0.010954175 -0.085169636 0.008812368 0.11609913 0.082302324 0.11532068
-0.039062135 0.06293075 0.0004108036 -0.08339388 -0.01761641 -0.136753 -0.019627843 -0.001340379
-0.043397594 0.07712836 -0.075362526 -0.2945103 -0.017416403 0.26502946 0.011452025 0.07595839
-0.087538056 -0.34201357 0.055014726 -0.03929648 -0.12634225 -0.14857525 -0.1649269 0.12613015
-0.06012365 0.005362031 0.08888965 0.026527423 0.14136353 0.029633556 -0.037714195 -0.030851385
-0.04684505 -0.12353449 -0.06837227 -0.10124467 0.07635703 0.08178731 -0.0762309 -0.00011084118
0.14820714 -0.039915357 0.12754917 0.05220142 0.14636983 0.090636946 -0.018709416 -0.09983958
-0.030558798 0.007843166 0.16875081 0.090191275 0.04851887 0.048798375 -0.0064168726 -0.49578497
0.052061107 0.24909778 0.15740702 -0.6040638 -0.04920928 -0.06862187 -0.038492996 0.17582059
0.1908729 -0.14925139 0.12812498 0.12338567 -0.005648235 0.081138946 -0.035632085 -0.025717694
-0.058960963 0.06408328 0.21435316 -0.21965851 0.20570058 0.18203178 -0.08978491 -0.20553446
-0.24884218 -0.059934452 0.04202163 -0.18112047 0.065538794 0.012381756 -0.017147057 0.0443931
-0.12197655 0.23903686 -0.05930837 -0.4228697 -0.0845535 0.033598326 0.09835109 -0.14878012
-0.18237849 -0.09749056 0.0092890235 0.030953862 -0.14462449 -0.07921992 -0.2789304 -0.31715283
0.113481 -0.19189109 -0.72487384 -0.123675235 -0.0044711814 0.034812458 -0.005339123 0.0059913862
-0.14312433 -0.29402542 0.2261576 -0.20521232 -0.49347195 -0.038985875 0.043224543 0.10719802
-0.063609496 -0.21265541 0.20533884 -0.0073809233 -0.07486224 -0.05011908 -0.19397518 -0.116599746
-0.10798346 -0.26438954 0.18191378 0.018626448 0.15367942 -0.31784862 0.0076637897 -0.06660072
0.045403007 -0.2026887 -0.09954435 -0.18916297 0.072224155 -0.04156476 -0.06399202 -0.06839747
-0.15394811 0.08567688 0.09787753 -0.20042735 0.25288498 0.11443153 -0.23559497 0.10151441
-0.11059633 -0.37529805 0.14702813 -0.011903066 0.0019790432 -0.38913825 -0.502035 0.03667866
0.006022717 0.014709228 0.02883883 0.059726283 -0.067676224 0.08551027 0.33683977 -0.42648092
-0.22769186 -0.32613596 -1.518034 -0.06765065 -0.015482499 -0.005236612 -0.04159027 0.01651114
0.054131035 0.10283094 -0.07822297 -0.03763187 -0.041999564 0.1511015 0.044351418 0.11508497
0.0031205171 0.13559589 0.055745464 0.0018333291 -0.022143058 0.07544071 -0.024875676 0.043265745
-0.06353215 0.00877467 0.103377804 -0.040530473 -0.0013927124 0.054201916 0.038657755 -0.0012908564
-0.005583828 -0.065284796 -0.026021775 -0.1361264 -0.13753305 0.064754285 0.033966597 0.19088744
0.03728428 0.013233194 0.065744355 0.015888141 0.016747508 -0.09655345 -0.10181383 -0.0027024928
0.12150895 0.30703712 0.0710809 -0.19723026 -0.017521381 -0.107593074 0.27569014 -0.16091852
0.02172073 -0.054316312 -0.06795933 0.07541245 0.24977967 -0.23134984 -0.18733509 0.061703227

fc1.bias f4 [64]
00000000: 36f0 0a3e d37a 4bbc 24cf 0bbe 388b 67bd
00000010: 12e6 233e 3baf 8b3c 85f5 bdbd ddc3 243d
00000020: 4a50 5ebc d667 72be 8d1f 1c3e 4d2a 383e
00000030: 61d4 9f3d b483 103e dbf4 b6bd a943 9bbd
00000040: 5841 053e 55f6 b0bd 2dbd 0e3d da93 60be
00000050: b1aa c9bd 1eb7 a83d 2247 793c d551 aebd
00000060: 154e 2fbe 8a6e 613e 6b50 f3bc 719e 10be
00000070: 9b2d 473e aab9 193e e79b a0bd a542 2fbe
00000080: 6adc 673e 542a 673b 48b9 54bd 1222 693d
00000090: 965a ddbd ec6e ea3c 2950 c9bc 569a 1dbe
000000a0: 7a14 04be 201a bebd 03d7 16be 4d5a 243e
000000b0: a14b 37bb 87bc 38bd b187 483d 9e46 4dbe
000000c0: a9e0 24be f4d3 ac3d 122b 5fbe a016 373d
000000d0: 5484 4dbd a03d 15bd 6ba3 63be 1514 203d
000000e0: d87c 2e3d 6c73 0abd fdfe 73bd 8b78 f5bd
000000f0: 64b2 d83c 7581 7a3c d116 e83c 7054 b0bc
0.13568196 -0.01241942 -0.13653237 -0.056529254 0.16005734 0.01705133 -0.09275345 0.040225852
-0.013568947 -0.23672423 0.1524641 0.17984886 0.0780418 0.14112741 -0.08933421 -0.075812645
0.13013208 -0.08640734 0.03484838 -0.21931401 -0.0984701 0.08238052 0.015214713 -0.08511702
-0.1711963 0.22014824 -0.029701432 -0.1412294 0.19450991 0.15012231 -0.07842236 -0.17115267
0.22642675 0.0035273032 -0.05193451 0.056917258 -0.108082935 0.028617345 -0.024574356 -0.15390906
-0.12898436 -0.09282327 -0.14730458 0.16050072 -0.0027968662 -0.04510167 0.04895753 -0.2004647
-0.16101326 0.08438864 -0.21793774 0.04469931 -0.050175026 -0.036435723 -0.22230308 0.03908165
0.04259953 -0.03380148 -0.059569348 -0.11985882 0.02645225 0.015289654 0.028331192 -0.021524638

fc2.weight f4 [64, 64]
00000000: 7f1f 0ebd f605 e33d 66ee 3a3e 3d61 543e
00000010: 719f 463e fa5d 2dbd f469 ddbd 22bd 88bd
00000020: 7b58 483e 623a 54be f185 a33d 4b39 85bd
00000030: 6036 b6be 2ef7 443e 8005 7abe 394d dfbd
00000040: 8f70 3bbe dc1a 04bb f008 75bd b476 c73d
00000050: 8170 0f3d 8a65 563d 25aa 64bd 4321 6bbe
00000060: bbab a2bd 720d c83c 4834 be3e 28c0 633c
00000070: ce08 193e 9733 10bd 7303 493e 5f78 3ebe
00000080: 4dba 593e 9b67 703c 857a d23d 5a8c 13bd
00000090: 833e 64be d30d 1b3e 9a83 183e b1fa b7be
000000a0: 641c 57bd e3fc ec3d c30d 673e e3ca 6dbd
000000b0: b198 30be 7fa5 56be e2aa b7be f7c6 833e
000000c0: c644 08bd 9c2e 09be b854 13be 793d 5b3d
000000d0: c98e 8ebd 8be1 d5bd c2bc d4be d766 763d
000000e0: 08cf 99bd eb24 8c3d d63f 79be 31a7 c03d
000000f0: acc0 b43d 1fc6 ad3e e9ee c03c af66 81be
00000100: 20c6 b1bc 8af7 593d 386e 75be 313c 013d
00000110: 4b7c a9bc 898c d23d c20b d8bd 54a7 aabd
00000120: ed8c 75bd 8f09 8cbb 33ff 9c3c d5b8 4a3e
00000130: bc2b 87bd 2976 d73d b446 a3bd 8068 ac3d
00000140: e21e 2b3e 6442 a03d a0f8 09bd 3dfa 88bd
00000150: 8754 013d eb7c 9fbe e65a e83d 5478 d33a
00000160: 1239 36bb 4832 a43d da37 d4bd acdd 80be
00000170: 44e8 633e f397 b2bc c5cb 813d 5578 90bd
00000180: 1c2f dcbd 2408 2e3e 17e5 053d 689c 03bd
00000190: b774 d03c 8d6c 843d ae2f 943e 638d f7bd
000001a0: 6aac 0fbd 8203 e63b 2798 31be a940 f1bd
000001b0: a69a 4cbd e98a 0abe 6742 a6bd c753 25bd
000001c0: 3dc5 f0bd 9166 18be cae4 93bd cb5b d73d
000001d0: 9684 ffbd a963 25be db4d 9cbe 221e 28bd
000001e0: b167 39be b565 22be fb07 703e 065f 353c
000001f0: 8701 31be 99b6 10be 1a09 55bd 83fb 813d
00000200: 04ff dfbd 9b9b dabd 1f79 dbbd 9a51 0cbe
00000210: eda0 253c b23b 173e 7631 d9bc e0b2 89bd
00000220: 3c57 ed3d a274 94bd 1d60 01bd 110d 133e
00000230: 4a80 e9bd 728e 383e d824 603d 8be0 cb3d
00000240: 7dc5 d7bd 7db7 2e3e b1fa c43d ef85 dc3b
00000250: db9b 68bd fca3 063d 4004 623d 3079 67bb
00000260: 34f9 d0bb a11b 453e ba55 003e 690f 53be
00000270: a37d 483e 3e79 3f3e 0f3c f73c 9ff7 a3bd
00000280: 3a38 e9bd 4829 c3bd b60d 16be b55e 503c
00000290: 4ce9 643d c246 713d aedb 3ebe d162 26bc
000002a0: f4ef e63d 540a 0ebc 3204 70be 3aee ebbd
000002b0: 46e4 1cbd 616c 293b 1404 233d 8ddf 83bd
000002c0: 5dbc 873d 4258 b7bb e26f 4bbd 4887 f33d
000002d0: d48a cfbd 97e5 0a3d 552e 40be dbfb 8ebd
000002e0: 4572 73bd 594e 90bd 7118 953e c82b e83c
000002f0: 986c 91bd 99cc d0bc ccf0 7ebd 5496 9bbd
00000300: 482d 2dbd 7e33 12be b2c2 03be 051b b7bd
00000310: a943 d63c 166a 413d b356 cd3d 2c3a 0fbe
00000320: 78cf c3bd 495b 4f3c a292 3abd 17fd 38bc
00000330: 15e1 69bc bac0 e43d 3335 de3d 8405 69be
00000340: 0977 59bd 63d0 b4bd bc75 ab3d 7751 76be
00000350: b660 d9bc a3b8 f9bd bf63 97bd 20b2 3c3d
00000360: f29f 43ba 5f5a 86bc 3e8a a4bc a0a0 143e
00000370: ba6d b43d 0320 7fbe cc1b 0a3e 953f 86bc
00000380: 072b 27be 459f ebbb 00ba 1a3e ec44 203e
00000390: bee4 2dbe a440 4dbb 2228 ff3e 7b7c 95bd
000003a0: b010 22bc 76c3 0f3d 117b bcbd 4394 cabb
000003b0: 38b2 18be 0c8d 2f3e 9db4 e63c 5c45 913d
000003c0: e2e7 ffbc 3d11 21be d1a5 85be 0380 39be
000003d0: 40ea 1f3e 5326 d1bd 018f c63a ade4 04be
000003e0: b0cc 9e3d 1450 acbe 196b cbbc 5397 103e
000003f0: e835 c1be 36b2 bb3c 5258 68be c55b adbc
-0.034698006 0.11085121 0.18255004 0.20740218 0.1939676 -0.04232595 -0.108112246 -0.06676699
0.19565003 -0.20725396 0.07984532 -0.065050684 -0.3558836 0.19234917 -0.2441616 -0.10903401
-0.18304656 -0.002015761 -0.059822977 0.09739438 0.0350194 0.05234293 -0.055826325 -0.22961907
-0.07942911 0.024420474 0.37149262 0.013900794 0.14944765 -0.03520545 0.19630222 -0.18600605
0.21262474 0.014673139 0.10277275 -0.03602252 -0.22289471 0.15141992 0.14893952 -0.3593345
-0.05251731 0.11571672 0.22563843 -0.058054816 -0.17245747 -0.20961569 -0.3587256 0.25737736
-0.033268712 -0.13396686 -0.14387786 0.05352542 -0.06960828 -0.104434095 -0.4155026 0.06015667
-0.07510191 0.06842979 -0.24340758 0.09406889 0.08825812 0.33940217 0.023551421 -0.25273654
-0.021700919 0.053214587 -0.23967826 0.031551544 -0.02068915 0.10280711 -0.105491176 -0.083326966
-0.05994885 -0.0042736004 0.019164657 0.1979707 -0.066001385 0.10520584 -0.0797247 0.08418369
0.16711 0.07825163 -0.033684373 -0.06688354 0.031574752 -0.31149992 0.113454625 0.0016133883
-0.0027805013 0.08017403 -0.10362215 -0.25169122 0.22256571 -0.02180097 0.06337694 -0.070542015
-0.10751173 0.16995293 0.03268918 -0.032131582 0.025446279 0.06466017 0.28942627 -0.12087514
-0.035076536 0.007019461 -0.17343198 -0.11779911 -0.04995217 -0.13529553 -0.08118134 -0.0403631
-0.1175637 -0.14882876 -0.072213724 0.10515555 -0.12476461 -0.16151299 -0.3052815 -0.041044362
-0.18105961 -0.1585911 0.23440544 0.011070019 -0.17285739 -0.14132155 -0.052010633 0.063468
-0.10937312 -0.10674211 -0.107164614 -0.13703004 0.0101091685 0.14768866 -0.026512843 -0.06723571
0.11588904 -0.072488084 -0.0315858 0.14360453 -0.11401422 0.18023089 0.054722637 0.099549375
-0.10535715 0.17062183 0.09618128 0.0067298333 -0.05678926 0.03287123 0.055179834 -0.0035320036
-0.0063773636 0.19248821 0.12532702 -0.20611347 0.19579177 0.18698594 0.030180005 -0.08006214
-0.113876775 -0.09529358 -0.14653668 0.012717892 0.05588655 0.05890537 -0.18638489 -0.010155396
0.11276236 -0.008669455 -0.234391 -0.115200475 -0.038303636 0.0025851952 0.03979881 -0.06439123
0.06627724 -0.005595238 -0.049667247 0.11891037 -0.10133901 0.03391036 -0.18767674 -0.06981631
-0.059435148 -0.07046194 0.2912021 0.028341189 -0.07100791 -0.025488185 -0.06224136 -0.07597032
-0.04227951 -0.14277455 -0.12867239 -0.089407004 0.02615531 0.047220312 0.10026302 -0.13987035
-0.09561056 0.012656041 -0.045549996 -0.01129081 -0.014274855 0.11169572 0.10849991 -0.2275601
-0.053092036 -0.08828809 0.083720654 -0.24054514 -0.026535373 -0.1219342 -0.07392072 0.04606831
-0.00074624934 -0.016400514 -0.02008545 0.14514399 0.08809991 -0.24914555 0.13487166 -0.01638774
-0.16325007 -0.0071906173 0.15110016 0.15651292 -0.1698179 -0.0031319046 0.49835306 -0.072991334
-0.009891674 0.035098515 -0.092031606 -0.006182225 -0.14911735 0.17143649 0.028162295 0.070933074
-0.0312385 -0.15729232 -0.2610307 -0.18115239 0.15616703 -0.10212388 0.001514882 -0.12977858
0.07753885 -0.33654845 -0.024831342 0.14120226 -0.3773644 0.022912126 -0.22689942 -0.021161923

fc2.bias f4 [64]
00000000: 805f 43ba b9b3 eebb a876 af3d de6c 8e3d
00000010: 0646 963d d756 22be 5f46 7ebd 2c1d 613d
00000020: 02a1 343d 085e 9e3e 512d debc 808d 593e
00000030: 94c7 143d 5f00 5ebd 2da6 91bd 5e58 ecbb
00000040: 7220 0dbb f58f 803d ee5e b6bd 5537 793d
00000050: aeb6 c53d 816a b63e cf28 03be 0b9e fbbd
00000060: 60d8 e3bd ab02 d8bd 08f8 a13d 38a2 3bbd
00000070: e853 7abd da12 013e 247e ef3c 0757 943c
00000080: 8fc7 bc3c 5b6a 043d 86e6 a43b 3a3c 2abd
00000090: c5ba 27bd 282d edbd 63a0 fa3c d3b2 cbbc
000000a0: 61db 16be 5bc9 c03e 7c80 553e 2a9c b5bd
000000b0: 644c ab3d b093 83bd f885 323e a22d 1ebe
000000c0: e32c 893d ce70 a3bd 812b 47bd ae27 9b3e
000000d0: 6b58 5cbc 3118 02be b781 823d 83c9 cebd
000000e0: 3597 3cbe e5f1 27be db5b 043e ef8f bcbd
000000f0: d500 133d 16e9 d83d 5009 ed3d c286 25bc
-0.000745289 -0.007284608 0.08567554 0.069543585 0.07337575 -0.1585344 -0.06207883 0.05495946
0.04409886 0.30931115 -0.027121218 0.21245384 0.036323145 -0.054199573 -0.07111774 -0.0072126826
-0.0021534231 0.062774576 -0.08904825 0.060843784 0.09653984 0.3562813 -0.12808536 -0.12286004
-0.11125255 -0.10547384 0.07908636 -0.045809 -0.061115175 0.12604848 0.029234953 0.018107904
0.023044376 0.03232799 0.0050323633 -0.041561343 -0.0409496 -0.115808785 0.030594056 -0.024865543
-0.14732124 0.37653622 0.20849794 -0.088676766 0.0836418 -0.064246535 0.17433918 -0.15447095
0.066980146 -0.079805 -0.048625473 0.3030371 -0.013448815 -0.12704541 0.063723974 -0.10097029
-0.18417056 -0.16400869 0.12925665 -0.09207141 0.035889465 0.105913326 0.11574042 -0.01010293

fc3.weight f4 [4, 64]
00000000: 0e2c 3dbe 21d1 293e 1bdf 153e 04ed c53d
00000010: c375 b73d 2a4a 83bd 0a62 0fbe 0b27 3ebe
00000020: e7cd c53e 6119 ab3d fcee 323d b0fa 723e
00000030: 936c 013f 7cfb 21be 3231 06bd 25fa 17be
00000040: d071 b83d f247 2d3e e9c6 e9bd 19a5 e53d
00000050: 2f9f 533d d00b 043e 8a59 e2bd a3c5 6abe
00000060: 41f7 41be 162b 2abe ae4d 1cbe 4448 debe
00000070: e9df 163d 6c16 b63d dfd4 57be fa44 033e
00000080: 1168 073e 0e29 5a3e 85a0 f73c 7e27 05be
00000090: 6458 a63e 04da 26be 969c ac3d a790 d93d
000000a0: 443f 483d 9d99 ef3d e0a6 5c3e 138b 46bd
000000b0: 0312 193e 7106 863d 7ec6 213e e749 8a3d
000000c0: 65f5 3c3e 524d 333e f7a5 16bd 4a18 bc3d
000000d0: 8fa8 3d3e a303 0dbe fd97 413d 650a 37bd
000000e0: a96d 1bbe 8eae 373e 2ce6 d43e ef9d 093e
000000f0: 8a2d 2f3c b1a6 1a3e 653c 003e 3df1 b63d
00000100: b0c6 fdbc 9c97 ce3d b4db 233e a751 d43d
00000110: 5984 153d 4789 403e f3dc fdbd 4224 b23d
00000120: b4ff 823e b429 923d 29f6 d23d 90ce 393e
00000130: f963 9b3e 61da ea3d d5ef 16bc 9930 213e
00000140: 5bdb 1dbe bd2d 2c3e 0197 5bbd 8943 223e
00000150: ccd3 0a3e 424f 423e abb8 a3bd 7290 1ebe
00000160: 8a68 ec3d 3295 0abe 0b9e f7bd a9c0 dbbd
00000170: 8d50 b4bd f088 963d 125f 36be 7a55 e23d
00000180: bc4d 183e 6f17 543e 072a f63d eed0 c3bc
00000190: c096 863e d53a 83bd 71a4 8c3c 5fe0 7a3e
000001a0: f0b4 f33d d3e3 e23d 8bd9 2e3e 9bd4 a6bd
000001b0: a8ee 133e 5656 16be 3ba0 b53d 71d4 85bd
000001c0: e204 743d cb39 dd3d ac54 ea3c 6626 213d
000001d0: a889 763e 14c6 48bd 128a ef3c 7f10 dabb
000001e0: 97ed 59be 5874 91bd 5860 9b3e 762c e3bd
000001f0: 79b1 e43c db42 b03d 408f b43b 8e02 a73d
00000200: d7a5 79be 8174 e73d 990b 023e bce5 b43e
00000210: 1e12 093e 7abd c73d d030 6e3e 87ea a53d
00000220: 12f4 6cbd ad72 003e 7bcd 023e 9a5d 073e
00000230: 5d8c 0e3f e76c 0dbd 665c 98bd 561f 583d
00000240: 990a a03e 37ac 573d eeba b6be 79cb 923d
00000250: 011e 3d3e 8824 5a3e 4ba1 23be 9fdb 133e
00000260: 59cc 613e dc3a 75bd f9b5 c0bd 9415 5ebe
00000270: 3407 703e 2c2b 033e f854 3ebe 70c6 d7bc
00000280: 055c 463d 6ec4 c53d e679 5b3e cf9c 53be
00000290: 044b 843e 6d20 c7bd e120 853e 7630 923d
000002a0: e421 8f3d fd71 0e3e 985b 123e 6def 193e
000002b0: b1b6 cb3d 0144 833d b2eb ce3d 8d3a 273d
000002c0: 8b49 b83e 5cb1 103d 8796 1e3b 6284 563e
000002d0: 8589 c83e 849e c03b 2527 4a3e f848 1f3e
000002e0: e31a 9cbd c932 893c d6df 933d b646 c3bd
000002f0: 1d80 b63c d631 013d de73 07be f76d 15be
00000300: 6862 03bd d570 dd3d 83c8 823d f91b 103d
00000310: 7ae8 debc 3fdf 2d3d ac17 15be 189b 193e
00000320: 9819 113f 98dd 373e 3a37 9a3e 0a1c c53a
00000330: fcff 163e a9ba 9ebe 00be 723d e56e 4dbe
00000340: 1007 91bb 78e8 7a3e ab3b b8bd c294 1a3e
00000350: d3d0 ac3c 5423 443e 7635 28be 1c3e b8bd
00000360: 2a7e 513b bccf fabd 894c 06be 1f0c 4fbe
00000370: 826f 4f3b e6ef 48bd d8ac b53d 35c7 a13d
00000380: cfa2 e63d 69d9 7a3d 32a0 ffbc d6fd 31be
00000390: d79e 923c f956 fabc f5f2 9c3e 56cf b13e
000003a0: 3ed0 aabd 7f9b 3f3e a05f 513e 887f 05be
000003b0: 16c4 bb3e 5a8a 03be a284 c53d 635e c83c
000003c0: 45f5 043d 3c2b 8e3d 2f3b 4a3e fab4 e63d
000003d0: 9407 443e 2901 adbc 7a29 323d fb04 363e
000003e0: 8d69 29be 0e6c c1bd a84a 0f3e 2da3 b53d
000003f0: 8212 6abe 7a11 523c dba0 7cbe 5624 a43d
-0.18473837 0.16583683 0.14635889 0.09664348 0.08958008 -0.0641063 -0.14002243 -0.18569581
0.38633654 0.0835445 0.043684945 0.23728442 0.50556296 -0.1581859 -0.03276176 -0.14841516
0.09006083 0.16921976 -0.11414892 0.112131305 0.05166548 0.12895131 -0.110522345 -0.22926955
-0.18941976 -0.16617998 -0.15264007 -0.4341451 0.03683463 0.088909954 -0.21077298 0.12819281
0.13223292 0.21304724 0.030227909 -0.13003346 0.32489312 -0.16294104 0.08428304 0.10623293
0.04888846 0.11699221 0.21548033 -0.048472475 0.14948277 0.06544197 0.15798375 0.06752377
0.18452986 0.17509964 -0.03677937 0.0918432 0.18521331 -0.13770919 0.047264088 -0.044687647
-0.15178551 0.17937681 0.41581857 0.13439153 0.01069201 0.1510265 0.12523039 0.08932731
-0.03097853 0.10087511 0.16001779 0.103671364 0.03650317 0.18802367 -0.12395658 0.08698322
0.2558571 0.071368605 0.103008576 0.18145204 0.3034971 0.11467434 -0.009212454 0.15741195
-0.15415709 0.16814323 -0.053610805 0.15846075 0.13557357 0.18975547 -0.07994207 -0.15484789
0.11543377 -0.13533476 -0.12090691 -0.107301064 -0.08804426 0.073503375 -0.17809704 0.110514596
0.14873403 0.20712064 0.12019735 -0.023903336 0.26286888 -0.06407706 0.017168256 0.24499653
0.118997455 0.1107861 0.17075174 -0.0814602 0.14446509 -0.14681372 0.08868452 -0.065346606
0.05957497 0.10802039 0.028604828 0.03934326 0.24075949 -0.049017027 0.029240642 -0.0066547985
-0.2128204 -0.07102269 0.30346942 -0.110924646 0.027916657 0.08606502 0.005510241 0.08154784
-0.24379669 0.11301518 0.12699737 0.35331523 0.13385817 0.09752937 0.23260808 0.08101373
-0.05784995 0.12543745 0.12773697 0.132193 0.5568293 -0.034527685 -0.074394986 0.05276426
0.31258085 0.05265447 -0.3568949 0.071677156 0.18468477 0.21302998 -0.15979497 0.14439248
0.22050609 -0.059870586 -0.094097085 -0.21687919 0.23440248 0.12809438 -0.185871 -0.02633974
0.0484276 0.096566066 0.2143322 -0.20665286 0.25838482 -0.097229816 0.26001647 0.071381494
0.06988886 0.1391067 0.14292753 0.1503274 0.09946955 0.06409455 0.10103549 0.040827323
0.3599361 0.035325393 0.0024198608 0.20948938 0.3916742 0.0058782715 0.19741495 0.15555179
-0.07622316 0.016747849 0.07220428 -0.095349714 0.022277886 0.031541668 -0.13227794 -0.1459273
-0.03207627 0.108125366 0.06385901 0.035182927 -0.027210463 0.042449232 -0.14559811 0.1500057
0.5667968 0.17955625 0.3012026 0.0015038264 0.14746088 -0.31001785 0.05926323 -0.20061834
-0.0044258907 0.24502742 -0.08995756 0.15095809 0.021095669 0.19154102 -0.16426644 -0.089962214
0.0031966069 -0.122466534 -0.13115133 -0.20219468 0.0031652157 -0.04905691 0.08870858 0.07899324
0.11261522 0.061242495 -0.031204317 -0.17381987 0.017898006 -0.03055905 0.30654112 0.34728497
-0.083405 0.18711661 0.20446634 -0.1303693 0.3667304 -0.12845746 0.09644438 0.02445907
0.03246047 0.0694184 0.19749139 0.11264987 0.19143516 -0.021118717 0.043496586 0.17775337
-0.1654417 -0.09444438 0.13993323 0.08869014 -0.22858623 0.01282155 -0.24670736 0.08014743

fc3.bias f4 [4]
00000000: 861a 613e e2eb 4b3e 9915 c43d 98e7 da3d
0.21982774 0.19914201 0.09574432 0.10688704
